…
mac_hidden_dim	300
mac_dropout_doc	0
mac_dropout_query	0
mac_nhead_1	5
mac_nhead_2	2
evin_input_max_sequence_length	200
evin_max_doc_length	200
evin_input_dim	768
evin_hidden_dim	60
evin_dropout_att	0.5
evin_dropout_mlp	0.6
evin_nhead	6
declare_input_max_sequence_length	100
declare_input_dim	768
declare_hidden_dim	128
declare_max_doc_length	200
declare_bilstm_num_layer	1
declare_bilstm_dropout	0
lr	5e-05
epochs	50
batch_size	32
start_epoch	0
resume	
evaluate	False
debug	False
seed	9
device	cuda
fp16	True
local_rank	-1

PrefFEND(
  (PatternBasedModel): EANN_Text(
    (convs): ModuleList(
      (0): Conv2d(1, 20, kernel_size=(1, 768), stride=(1, 1))
      (1): Conv2d(1, 20, kernel_size=(2, 768), stride=(1, 1))
      (2): Conv2d(1, 20, kernel_size=(3, 768), stride=(1, 1))
      (3): Conv2d(1, 20, kernel_size=(4, 768), stride=(1, 1))
    )
    (fc_cnn): Linear(in_features=80, out_features=64, bias=True)
    (event_discriminator): Sequential(
      (0): Linear(in_features=64, out_features=64, bias=True)
      (1): LeakyReLU(negative_slope=True)
      (2): Linear(in_features=64, out_features=300, bias=True)
      (3): Softmax(dim=1)
    )
    (fake_news_detector): Sequential(
      (0): Linear(in_features=64, out_features=64, bias=True)
      (1): LeakyReLU(negative_slope=True)
      (2): Linear(in_features=64, out_features=256, bias=True)
    )
  )
  (fcs): ModuleList(
    (0): Linear(in_features=256, out_features=128, bias=True)
    (1): Linear(in_features=128, out_features=64, bias=True)
    (2): Linear(in_features=64, out_features=2, bias=True)
  )
)
